net_trained.pth (torch, 4703 bytes, 4 tensors)

weight f4 [100, 3]
000000 90 df 6b bd ac 68 5a be 30 2b c9 3d 16 59 5c be
       -0.057586253 -0.21328992 0.098226905 -0.21518359
000010 82 5a 03 3f c7 eb 0a bf fc ac 61 3e 60 88 b4 3e
       0.5130998 -0.5426602 0.22038645 0.35260296
000020 70 6f ec be 56 f9 0b bf 13 a6 84 be de e2 6a be
       -0.4617877 -0.5467733 -0.25907955 -0.22938105
000030 82 d8 d8 3e d1 72 c3 3d 86 64 c9 3e bb 0c 2b 3e
       0.42352682 0.09543384 0.39334506 0.16704075
000040 82 a5 ec be bf aa a0 3e d4 c8 07 bf 7e 2d 72 be
       -0.46220022 0.3138027 -0.53040814 -0.23650166
000050 58 b7 41 3e 5d 29 da bc 96 0d 21 be 0f c2 51 3e
       0.18917596 -0.026631052 -0.15727839 0.20484184
000060 38 44 c7 be a4 79 98 bd db 66 39 3e d0 51 f6 3e
       -0.38919234 -0.07445076 0.18105642 0.48109293
000070 a3 bc 01 3f 61 27 93 3e 3e 98 8d 3e f0 51 07 bf
       0.5067846 0.2874098 0.27655214 -0.528594
000080 7a 35 91 be 94 76 1d 3f 10 da 45 be 40 21 73 3e
       -0.28361112 0.6150906 -0.19321465 0.23743153
000090 e1 de c4 be d9 d4 3e be ef ef 22 3c a9 9f 06 3f
       -0.38451293 -0.18635882 0.0099449 0.5258737
0000a0 1a e8 a2 3e 41 7c 66 3e 32 9a a7 3d cc 29 b1 3e
       0.31817704 0.22508337 0.08183707 0.346022
0000b0 17 a6 5a bd 96 7e ca b8 a4 a6 61 bd 5a 46 62 be
       -0.053381052 -9.655689e-05 -0.05509056 -0.2209715
0000c0 b7 e7 26 3e 5e 00 fa be 8c 5d 03 3f e8 82 50 bc
       0.1629933 -0.48828405 0.51314616 -0.012726523
0000d0 f4 2e 33 be 27 9c c7 be ca c9 08 bf 64 15 c5 3e
       -0.1749838 -0.38986322 -0.53432906 0.38492882
0000e0 f4 d8 87 3e a8 20 bb bd 39 3e 82 be 6d 21 12 bf
       0.2653271 -0.09137088 -0.25438097 -0.57082254
0000f0 a7 06 cf be 39 f0 fd 3e f9 07 c4 be ba 8e 04 bc
       -0.40434763 0.49597338 -0.38287333 -0.008090669
000100 1e b1 00 3f 61 e4 fc bd 2d 35 29 3d cc b6 21 3b
       0.5027026 -0.12348247 0.041310478 0.0024675606
000110 53 4e 86 be bc 5c bc 3e 71 a7 6b 3e 3e f4 72 bd
       -0.26231632 0.367895 0.23013093 -0.05931496
000120 ad a1 c7 be 9c 2d 45 3d f1 91 36 be ce 9e b6 be
       -0.38990536 0.0481392 -0.1782911 -0.35668033
000130 da 70 e9 3e 03 b4 c5 3d f6 d2 1c bf fe 0d b9 3e
       0.4559391 0.09653475 -0.612594 0.36143488
000140 a7 3a 00 3f bf 9e 13 3f ae 36 19 be b6 f6 0d be
       0.50089496 0.576641 -0.14962265 -0.13863644
000150 e8 ef 0b bf 05 df b4 bd 69 9f 93 3e 21 2d cd be
       -0.5466294 -0.088316 0.28832558 -0.40073493
000160 02 18 8c be 2d d7 4e 3e 50 39 c8 3e c9 13 a5 be
       -0.27362067 0.2019927 0.39106226 -0.32241657
000170 08 5e 2c be ab 45 09 3f d6 9d f2 3d 77 5e b4 be
       -0.16832745 0.5362193 0.11846511 -0.3522832
000180 53 14 e5 3e e5 91 c3 3e 07 c3 3f 3e 0d 33 14 3f
       0.4474207 0.38197246 0.18726741 0.578904
000190 36 c8 69 3d 64 fc 05 3f f4 53 60 be 37 12 aa be
       0.0570757 0.5233824 -0.21907026 -0.33217022
0001a0 71 64 f3 3e c0 54 b2 3e f1 8b 6f be 9d 23 c9 3e
       0.47537568 0.34830284 -0.23393227 0.39284983
0001b0 ee 1b 4b be 7a 92 ef 3e e2 8a 51 3d a4 c4 3b 3e
       -0.19834873 0.4679144 0.05115784 0.18336731
0001c0 8c ef f7 be 27 05 18 3d 12 50 c6 3e cd 47 8d 3e
       -0.48424947 0.03711429 0.38732964 0.27593842
0001d0 5c 14 be be 70 11 ea 3e a0 b8 85 bd 88 ba c0 be
       -0.37124908 0.4571643 -0.06529355 -0.37642312
0001e0 12 9d ac 3e ed 45 05 be bf e3 e8 3e 44 7b 70 3e
       0.33713585 -0.13014956 0.45486256 0.23484522
0001f0 4f fa e5 be 4c 58 7b be 17 76 61 3e f1 d3 ad be
       -0.44917533 -0.24545401 0.22017704 -0.3395076
000200 81 ea ae bd a9 6b 0d bf 1c 31 6b bd be a7 98 be
       -0.08540822 -0.552424 -0.05741988 -0.29815477
000210 85 27 c0 be 77 50 04 3f 09 3f 27 be d6 f0 36 3f
       -0.3753015 0.5168528 -0.1633264 0.71461236
000220 11 4c 47 3e 87 de d3 3d bd a0 16 3f 7a a7 13 be
       0.19462611 0.10345178 0.5883902 -0.14419356
000230 1f d0 ec 3e 0e 75 e5 3d 6c cd 01 be 3d 02 51 3e
       0.46252534 0.11203967 -0.12676018 0.2041101
000240 a9 6d 04 bf 3f f5 99 be ca 87 c6 be 5c e4 bf bd
       -0.5172983 -0.3006992 -0.38775474 -0.09369728
000250 16 cd af be 61 cc 05 bf 40 f1 bc 3c e0 a0 9b be
       -0.34336156 -0.5226498 0.023064256 -0.30396175
000260 94 c8 fd bd 79 4e 06 bf 00 a2 c8 bb 9c c8 0f 3e
       -0.12391773 -0.5246349 -0.0061228275 0.1404137
000270 d8 4c de 3e f4 b5 9f bd b0 8e 2b be df 20 21 bf
       0.43418002 -0.07798377 -0.1675365 -0.6294078
000280 4d c0 c4 3e 81 c3 74 bc ce 08 da 3e 91 07 6d 3e
       0.38427964 -0.01493919 0.42584842 0.23147418
000290 8f fa 1e bd 0d 5a 90 3e 79 92 0d 3f 2b 14 af 3e
       -0.03881317 0.28193703 0.55301625 0.34195074
0002a0 b0 17 ae be 2a fc 2d 3c 2e 09 ec 3e c7 c7 95 3e
       -0.34002447 0.010619203 0.46100754 0.2925398
0002b0 df 63 75 3d 59 0c 01 3e 68 fd cb bd 61 43 bf be
       0.059909698 0.12602367 -0.09960443 -0.37356094
0002c0 50 7e 04 3e 7f 30 f7 be 36 18 10 3f 10 b8 e6 bd
       0.1293881 -0.48279187 0.5628694 -0.11265576
0002d0 c4 ac b5 3e a7 0f eb 3e 2f 46 fc 3e 82 54 1f bf
       0.35483372 0.4591038 0.49272296 -0.62238324
0002e0 a5 a5 02 3f 45 5a 08 3f 99 e2 63 3e e9 2b 89 be
       0.51034003 0.5326274 0.22254409 -0.26791313
0002f0 8d 62 0c bf cb 93 0e 3e 25 47 0a 3f 4a ee 00 3f
       -0.54837877 0.13923566 0.5401481 0.503636
000300 e8 7b 6d be 85 8e c6 3e 86 79 82 3e cd cd 37 3e
       -0.23191798 0.3878061 0.2548334 0.179496
000310 51 6f a8 3d da 80 9a be 8e 4c 03 be 8e 5c be be
       0.08224357 -0.3017643 -0.12822172 -0.3717999
000320 66 06 f1 be 43 2b 10 3f 3f e1 3c 3e aa 0f 8e 3e
       -0.47075194 0.5631601 0.184453 0.27746326
000330 6a 25 a7 be a8 87 3f bc 55 00 89 bd 03 af 13 3f
       -0.32645732 -0.011690058 -0.066895165 0.5768892
000340 c3 73 41 be 36 0a c4 3e a8 d8 f1 be fd 05 03 3f
       -0.18891816 0.3828904 -0.47235608 0.5118101
000350 5a 59 6d be 55 37 01 bf a0 16 be be 0a 0a de be
       -0.23178616 -0.50475055 -0.37126637 -0.43367034
000360 13 f3 c2 be f5 24 db be bd d8 95 3d 60 1c e1 be
       -0.38076076 -0.42801633 0.0731673 -0.4396696
000370 be 48 a6 be d8 27 e6 bd 43 af 1d be 56 02 01 3e
       -0.32477373 -0.11238068 -0.15398888 0.12598547
000380 c7 45 c2 3e 1a 9d ed 3d 6c 42 0a bf 14 ff 05 3f
       0.3794386 0.1160223 -0.540076 0.52342343
000390 dd 76 4c 3e 62 4e f8 be e8 a0 bd be 40 7b f5 bc
       0.19967218 -0.484973 -0.37036824 -0.029965997
0003a0 a8 3e d0 be 0c ae c6 3e 86 c3 db be 91 76 8c be
       -0.40672803 0.38804662 -0.4292261 -0.2743421
0003b0 84 13 aa be a9 c8 3a bd a3 af a8 3e 42 19 ff 3e
       -0.33218014 -0.04560152 0.329465 0.49823958
0003c0 d1 c0 2e be 58 da a1 3e ad 82 80 3e d4 9f fb bc
       -0.17065741 0.31611896 0.25099698 -0.03071586
0003d0 a1 c3 52 3e 3b 80 f9 be a2 cd 4f be 3a 14 05 be
       0.20582439 -0.48730645 -0.20293286 -0.12995997
0003e0 30 9c fb bd 29 56 5f 3e f9 2f a6 3e 90 0f ba 3e
       -0.1228565 0.21810211 0.32458475 0.36339998
0003f0 ea bc 97 bd 9c 2d 8e 3e 74 38 44 3e 68 7d b4 be
       -0.074090794 0.27769172 0.1916216 -0.35251927

bias f4 [100]
000000 10 40 cd bd d5 9b 0c bf a6 4f d1 3e 1c 75 61 be
       -0.100219846 -0.5492528 0.4088108 -0.2201733
000010 0a 67 f2 3e 46 9e fc 3d 5a 7d dd be 4c ec 7b bb
       0.47344238 0.12334876 -0.43259698 -0.0038440404
000020 0c 9a b6 bb f8 ad ee be 26 8b 6c 3e 3a 94 ea bd
       -0.005572563 -0.46617103 0.23099956 -0.11454053
000030 50 31 d7 3e 2b ae b0 be 92 66 29 be 79 e9 0f 3e
       0.4202981 -0.3450788 -0.16543034 0.14053907
000040 a7 ac ad 3d aa 22 26 3e 49 24 2c 3e ff 91 b9 3e
       0.084801964 0.16224161 0.16810717 0.362442
000050 92 ae d7 bd 0b 6c e6 3b d9 b1 90 3d 98 9a 92 3c
       -0.105313435 0.0070319227 0.07065172 0.017895982
000060 de 8c 28 3d fb 72 00 bf 62 d9 9a 3e af 76 fe be
       0.041149966 -0.50175446 0.30243975 -0.49699923
000070 61 b5 c2 3e c9 67 d1 3e 64 e7 1a be b8 c8 78 be
       0.38029006 0.40899494 -0.15127331 -0.24295318
000080 59 5b 12 be b4 d0 30 be ed da 23 be 43 17 14 bf
       -0.14292659 -0.17267114 -0.16001482 -0.57847995
000090 a2 76 37 be de e1 c3 3e 6e 1f 16 3e d1 a5 02 bf
       -0.17916349 0.3825826 0.14660427 -0.51034266
0000a0 59 cd 9c 3e f6 20 e2 be a0 05 9a 3c 48 f9 61 3d
       0.30625418 -0.44165772 0.01880151 0.055169374
0000b0 1a 4a c4 bc d8 37 3f be 11 c0 59 be 04 0b 81 bc
       -0.023961116 -0.18673646 -0.21264674 -0.015752323
0000c0 2a f8 e8 3e e6 f3 cf be 00 94 ff be d2 64 60 be
       0.45501834 -0.40615767 -0.49917603 -0.2191346
0000d0 1a 4e dc be 5f 81 fa 3e 10 56 0e bf 25 a4 18 be
       -0.43028337 0.48926827 -0.5560007 -0.14906366
0000e0 7b fa df 3e 04 80 10 3f 8f 98 0d bf bc 3e 72 3e
       0.4374579 0.56445336 -0.5531091 0.23656744
0000f0 c8 d3 e5 3e 14 fc ef 3d c2 6f 11 3f 11 cc cf be
       0.4488814 0.11718002 0.56811154 -0.40585378
000100 2a ca 11 3e 85 04 6f be 80 3e 9e bd 1e 79 7a 3d
       0.14237276 -0.23341568 -0.07726765 0.061150663
000110 8a 33 ab 3e 48 ed 85 3c c5 09 65 be 2a 4b b3 be
       0.3343776 0.016348496 -0.22367008 -0.35018283
000120 89 b9 b7 3e 06 58 f0 3e ee 25 8e be ab cf be be
       0.3588374 0.46942157 -0.27763313 -0.37267813
000130 e0 ef e4 3d c4 c4 c6 be 84 d8 72 be 1e ab a2 3e
       0.11178565 -0.38821995 -0.23715407 0.31771177
000140 a5 f0 11 3f 1f 9f b1 3d 60 ac 17 be 90 64 06 3d
       0.5700782 0.08672928 -0.1481185 0.032810748
000150 a3 13 d0 be dd c1 fc 3d b0 47 5a 3d f9 db 86 3e
       -0.40639982 0.12341664 0.053291023 0.263397
000160 fc e0 c5 3d b8 0b be be 76 b4 c2 3e 6a 61 5a bd
       0.09662053 -0.37118316 0.38028306 -0.053315558
000170 c4 cb aa be 9f 55 83 bd 6d 8d 1d be 5e b3 0f 3f
       -0.33358586 -0.06412815 -0.15385981 0.5613307
000180 66 c2 0b 3f 85 a5 50 3e 91 21 e9 3e ba c0 b5 bd
       0.54593503 0.2037564 0.45533422 -0.0887465

weight f4 [2, 100]
000000 17 18 2d bd aa 54 49 bd 83 86 d6 bb 80 66 bb 3c
       -0.042259302 -0.049153008 -0.0065467968 0.022876024
000010 e9 4c 9c bd 2a 8e ec bd 3e d6 7e 3d 75 9d a8 3d
       -0.07631857 -0.11550553 0.062216036 0.082331575
000020 9c 82 a5 bc ea 3f 43 be b2 00 60 bd 90 8e 4c be
       -0.020203881 -0.1906735 -0.054688163 -0.19976258
000030 72 f9 a4 3d 78 2a 5d be f7 db 8b 3d f6 1b b7 3d
       0.080553904 -0.21598232 0.06829064 0.0894088
000040 f0 68 a1 bd 92 79 ba 3d a1 36 0b 3e cd 32 98 3c
       -0.07881343 0.09105219 0.13595058 0.018578911
000050 8e 3d 8d bd 32 10 71 3d 96 54 99 3d 2a cf 4a be
       -0.06896506 0.058853336 0.074868366 -0.1980559
000060 42 f8 3a 3d a2 b2 b5 3d 1f 9e be 3e 3e e6 7d 3c
       0.045646913 0.08871962 0.37230012 0.015496789
000070 49 a9 85 3e a0 67 83 3e 5b de fe bb e5 93 a4 bd
       0.26105717 0.25664997 -0.0077779717 -0.08036021
000080 55 ce 81 be 05 fa 89 be 52 f6 04 bd fa 6a 57 3d
       -0.2535273 -0.26948562 -0.03246147 0.052592255
000090 cf 8d f2 3c 84 73 a0 bd 50 a3 75 bd 23 92 c1 bd
       0.029608635 -0.07834533 -0.0599702 -0.094517015
0000a0 b5 56 05 be a1 de bc 3d 3e e0 cb bd 41 77 a3 bd
       -0.13021357 0.092221506 -0.0995488 -0.0798173
0000b0 18 1b 10 3e d4 fc b4 be 3c a3 66 be 90 33 6e 3c
       0.14072835 -0.35349143 -0.22523206 0.014538661
0000c0 ad 55 ea 3c b0 33 5f 3c 10 54 34 bc 19 0e cc 3d
       0.028605307 0.013623163 -0.01100637 0.099636264
0000d0 28 72 71 bc b6 74 89 3e 8a 7b ba 3d 6b 80 c9 bd
       -0.01473669 0.26846856 0.091055945 -0.09838947
0000e0 41 4d 8a 3e 3c 10 83 bd de 5e 1b 3d ad 38 1c 3e
       0.27012065 -0.06399581 0.03793227 0.15255995
0000f0 35 c8 ad bc 46 f3 aa 3e cc a3 f4 ba 19 09 09 3d
       -0.02121363 0.33388728 -0.0018664538 0.03345594
000100 ba 02 09 3d 11 fd 4d 3d 5d 1b 8e bd 0d 33 96 be
       0.033449866 0.05029017 -0.06938813 -0.29335824
000110 45 a2 61 3e 0a 25 8a be 9f f7 d9 3d 40 21 4a bb
       0.22034557 -0.26981384 0.10642933 -0.0030842572
000120 57 4a 19 3e 7b 60 1a 3e 8e 1d 15 bd a4 88 af 3d
       0.14969765 0.15075867 -0.03640514 0.08570984
000130 db 33 1d bd b6 94 9e bd cb cf c4 3d 1e c7 44 3b
       -0.03837953 -0.07743208 0.09609946 0.003002591
000140 7e 4c fd 3d 18 c3 8d 3d b2 ed 00 3d 8d 04 e7 bc
       0.12368105 0.06921977 0.031476684 -0.028200412
000150 4f 6b ff bc 0a 6c ed bc 2f 0d 00 3b 90 c2 1d 3e
       -0.031179098 -0.028982181 0.0019539108 0.15406251
000160 fd 82 ed 3d 02 dd 09 3d 0e b1 9c 3c 23 3a dc bc
       0.1159725 0.033658035 0.019127395 -0.02688319
000170 36 46 c0 3d 93 7b a9 be 7a 7d c5 3d d4 18 a6 3e
       0.09388392 -0.33102092 0.096430734 0.32440817
000180 31 60 35 3d 95 03 71 bd b2 86 75 3e a1 a2 29 be
       0.04428119 -0.058841307 0.23977163 -0.16565944
000190 9f f7 88 3d 92 88 97 bd 29 42 c1 3d 14 9e ce bc
       0.06687855 -0.073990956 0.09436447 -0.025221862
0001a0 93 68 9a 3d 61 6e ae 3d 8a 9b 68 3d 5f 5d c1 bd
       0.07539477 0.08517147 0.05678896 -0.09441637
0001b0 e2 88 70 3d 07 8e 16 3e fc 7b 81 3d 9d d4 3d 3e
       0.05872429 0.14702617 0.06322476 0.18538137
0001c0 4c e6 6c be e1 61 15 3e 92 5d aa bb 32 05 53 3d
       -0.23134726 0.14588119 -0.0051991427 0.051518627
0001d0 89 c6 af 3d 92 ae 8d bd 4d 3b 86 be a0 09 07 bd
       0.085827895 -0.06918062 -0.26217118 -0.032968163
0001e0 e7 ad 06 bd 4b 00 ab 3d e8 ed 68 bd ac 43 64 3e
       -0.03288069 0.08349665 -0.05686751 0.2229144
0001f0 09 21 c8 bd 1e ce 14 bc bc a4 92 be 47 db a3 3d
       -0.09771926 -0.009082345 -0.28641307 0.08000808
000200 08 53 8e be 07 04 a4 bd 3c 97 cc bc 96 44 78 bc
       -0.27797723 -0.08008581 -0.024974458 -0.015153071
000210 5e a1 42 3e 01 bc 92 3e 5a fa d4 bd 15 33 c0 3b
       0.19006869 0.2865906 -0.10399313 0.0058654645
000220 e3 92 20 3d 1a 62 bf 3d 82 26 6b 3e 52 db a7 bd
       0.039202582 0.09344883 0.22963908 -0.08196129
000230 1f 9c 0f 3d c0 06 bd bc e7 e7 e2 bc 4f 5b 97 3d
       0.035060998 -0.023074508 -0.02769847 0.073904626
000240 26 fb e8 bd 24 b2 b8 3e 80 4c 35 3e ff 4c 03 bc
       -0.11376028 0.3607341 0.17704964 -0.008013963
000250 bd a4 a5 bd 52 09 4c 3d c4 90 85 bd bd 32 91 3d
       -0.08088062 0.049813576 -0.065217525 0.07089756
000260 91 46 c3 3d e5 9e 9b be f3 ca 2d bd 60 b2 3b 3e
       0.09534944 -0.30394664 -0.042429876 0.18329763
000270 0e 1e 27 be 77 1b a1 3d 6b 15 af 3d f6 bd 7d be
       -0.16320059 0.07866567 0.08549007 -0.24779496
000280 24 44 61 3d 8f 08 9a be 4a 4a 8e 3d 24 14 aa 3d
       0.054996625 -0.30084655 0.06947763 0.08304623
000290 b1 06 8d bd 51 9c a1 3d a2 f6 b0 bd 1f 42 2a 3e
       -0.06886042 0.07891143 -0.086407915 0.16626786
0002a0 0d aa 23 be 6b d5 83 3e b0 3b bb 3b 23 13 7e bd
       -0.15982838 0.25748762 0.0057139024 -0.06202997
0002b0 47 b4 ce bd fc 31 2f bd 85 81 d8 3c 86 97 a1 3d
       -0.10092979 -0.04277228 0.026428947 0.07890229
0002c0 05 7a d3 bc c8 70 d3 bc a0 ec 73 bd 53 8b 6a bc
       -0.02581502 -0.025810614 -0.059551835 -0.014315444
0002d0 fc 72 2a be 86 74 a4 3c 29 39 c2 3d 8e 0e 7c 3d
       -0.16645426 0.020075094 0.09483559 0.061537318
0002e0 72 4f aa bd e4 4a 22 3d d2 d2 99 bd bc ea 3f be
       -0.08315934 0.039622203 -0.07510914 -0.18741888
0002f0 02 83 65 3d b3 34 5d bd 9d 67 9f 3c b2 4b 92 3d
       0.056033142 -0.054005336 0.019458586 0.07143344
000300 7c 35 67 3d 63 60 af 3e a4 7a ac 3d a9 14 67 be
       0.05644749 0.34253225 0.08421829 -0.22566475
000310 a2 34 30 be 95 89 53 bd 40 5f 83 be 6e 7b 43 3e
       -0.17207578 -0.05164488 -0.25658607 0.19090053

bias f4 [2]
000000 b8 6c b0 3d 19 01 1f be
       0.086144865 -0.15527762
